raspberry_pi/tflite-speech-recognition/backup/model_lite.tflite (tflite, 73120 bytes, 10 tensors)

dense_3/bias f4 [10]
00000000: 6b4f 3b3d 4391 683d eaa0 c13d 54f2 95be
00000010: b87f 8fbd 5611 6abe 14be 793c 40d9 cd3c
00000020: 4743 a13e b757 e33d
0.045730036 0.056779157 0.0945452 -0.29286444 -0.07006782 -0.22858176 0.015243072 0.025128007
0.3149664 0.11100715

dense_2/bias f4 [64]
00000000: cf2a 7dbc 03aa 8a3d 98be 323e ae83 193e
00000010: 8893 893d de27 bbbd befc 21bd 93ff eabc
00000020: 3deb 553c 43a9 7fbc 2c5c d73d 9dbe f83b
00000030: 1459 243d 8894 3a3d 62e7 f9bc a1f5 f93d
00000040: 7357 c6bc 0388 b3bd e706 fe3c aa41 cfbd
00000050: 5b8d 67bd fc8b 773d 193a 033d a270 cc3d
00000060: 5022 803d ef5b 693c af02 383c 2817 e43d
00000070: a4ea e13d 3867 093e f1db 2bbd 2d71 e43d
00000080: 32db 26bc 92fc 8bbd 21af be3d d96f da3d
00000090: 7dce ac3d 335f 6f3d 2b9e 0a3e c70f b2bc
000000a0: a51a 473d 4ac9 2f3d 9c09 aa3c 0ecd 483c
000000b0: 8655 253a 438b 60bd 368a ea3d 2c5b 8e3c
000000c0: 994b 123e 4956 013e 6fe5 1c3e 814a b73d
000000d0: 536c cd3c 0673 063d df58 7dbc 52ad 15bd
000000e0: 3750 e0bb 65c0 1a3d 03c2 9b3d 741a 813d
000000f0: 5a5b 923d 0e08 7e3c b9f3 ec3c 1af2 413e
-0.015452101 0.067707084 0.17455518 0.14991638 0.067175925 -0.091384634 -0.039547674 -0.02868632
0.013056573 -0.01560432 0.10515627 0.0075910822 0.040124014 0.045551807 -0.03050584 0.12205053
-0.02421162 -0.087661766 0.03100915 -0.10119946 -0.05653129 0.060436234 0.032037828 0.099824205
0.062565446 0.01424311 0.011231109 0.11137229 0.11031082 0.13418281 -0.0419578 0.11154399
-0.010184096 -0.06835283 0.09310747 0.106658645 0.08437822 0.0584404 0.13536899 -0.021736039
0.048609395 0.042916574 0.020756535 0.01225592 0.00063069945 -0.05482031 0.11452143 0.017377459
0.1428665 0.12630571 0.15321897 0.08949757 0.025076067 0.03282454 -0.015463083 -0.036542244
-0.0068455 0.037781138 0.07605364 0.06303874 0.0714633 0.01550485 0.02892481 0.1894001

conv2d_5/bias f4 [64]
00000000: 04e8 17bd 6a86 a73d 3a2c 11be f97f ddbc
00000010: ee44 2f3c 3866 f8bd b6e0 38bd 8394 91bd
00000020: 5e3a bc3c 6e7a 36be 945d 40bc 7edf 5cbe
00000030: 53cf 01bd 651f 073d ff59 46bd 94d7 323d
00000040: 8683 e53c 5fde 09bd 794a 813d 6f2c e4bd
00000050: c22d 07be 56ef d4bd 34ef 07be 4519 ec3d
00000060: b25f 0fbe 1062 283e 07b5 14be 0086 d9bc
00000070: 0ffb 773d 4a01 d83d 592e dd3d ac46 85bd
00000080: 04da 1bbd 6e70 a2bd e468 2cbd 5496 86bd
00000090: 5df6 70bd f275 5abe df6f 08bd 3148 73bd
000000a0: b1f8 afbb 905d c03d 1234 143c 7435 82bc
000000b0: 24c2 a23d f7a6 6d3c 98b2 0d3c 34b8 47bb
000000c0: 8ac1 61bd c3c1 f7bd bf8a 8c3d 10bd d0bc
000000d0: 85d6 55bd aaec 833c cc93 1abe b06b eb3c
000000e0: 4830 35bd 1e39 c6bc 3537 11be 97e0 94bd
000000f0: 2f25 2fbd 4bcd 2bbd b102 8c3d c94f 55bd
-0.0370865 0.08179934 -0.14177027 -0.027038561 0.010697586 -0.12128872 -0.045136176 -0.071084045
0.02297705 -0.1782014 -0.011741061 -0.2156963 -0.03169186 0.032988925 -0.04842567 0.043662623
0.028016817 -0.033659335 0.06313033 -0.111412875 -0.13201049 -0.10397212 -0.13274843 0.11528257
-0.14001349 0.16443658 -0.14522181 -0.026553154 0.060542163 0.10547121 0.10799856 -0.0650762
-0.038049713 -0.079316005 -0.04209222 -0.065716416 -0.0588287 -0.21334055 -0.033309814 -0.05939502
-0.0053702225 0.09392846 0.009045618 -0.015894629 0.07947186 0.01450514 0.008648537 -0.0030474784
-0.055116214 -0.12097504 0.06862401 -0.025480777 -0.052206535 0.016104061 -0.15095443 0.028737873
-0.044235498 -0.024197157 -0.14181216 -0.072693996 -0.04276007 -0.04194383 0.06836451 -0.052078042

conv2d_4/bias f4 [32]
00000000: 4b53 27bc 8ae5 863c 1732 82bc 5754 813b
00000010: a616 91be 96f6 09bd 0910 61bd 8585 2b3e
00000020: 862e 853d 4919 3b3e 2c0f 6fbd 9004 26be
00000030: c02e 153d 0ca6 b63b da6f e53d 73c4 413d
00000040: 6e7e f7bd a2f0 efbc 224f 733e 1453 93bd
00000050: 8306 6cbd 1c69 0f3c 2a6b f13c 5dee 5b3d
00000060: 7b07 d5bc 2bf5 34be e295 98bc 83ac eb3d
00000070: b110 24bc 6ee9 0d3c 1a4a 783d 9b3e 24be
-0.01021273 0.016466875 -0.015893025 0.0039468217 -0.28337592 -0.03368243 -0.054946933 0.16750152
0.06503014 0.18271364 -0.05836408 -0.16212678 0.036421537 0.0055739935 0.112029746 0.04730649
-0.120846614 -0.029289547 0.23760656 -0.0719358 -0.057623398 0.008753087 0.029470045 0.053694118
-0.026004544 -0.17671649 -0.018626157 0.115075134 -0.010013745 0.008661611 0.060617544 -0.16039507

conv2d_3/bias f4 [32]
00000000: b30a 9b3d 8ab8 07bd b3fe 0e3e d417 343d
00000010: 45e6 c3bc 445e 7a3d a2f6 a63a aeca 843b
00000020: f0d5 eb3e 114c b0bd 3745 593e 0214 bf3d
00000030: 2b67 9a3d cff1 57be cc8a 98bd bfd1 a03d
00000040: b83e acbc ad70 133d e418 3a3d b8cd e4bc
00000050: ff74 293d 31cd 453e 3242 80bd 791a b4bd
00000060: ec70 d33c 5893 41bd 4a43 39be d001 ec3d
00000070: 41f7 ab3d 5f03 83bd 66dc a7bd 5d31 42be
0.075704 -0.033134975 0.13964348 0.043968037 -0.023913512 0.061125055 0.0012738297 0.0040524816
0.4606166 -0.086082585 0.2121781 0.09329988 0.07539209 -0.21088336 -0.074483484 0.07852506
-0.021026 0.035996128 0.045433894 -0.027930126 0.04137134 0.19316556 -0.06262626 -0.08794112
0.025810681 -0.04725966 -0.18092075 0.11523783 0.08396769 -0.06397127 -0.081963345 -0.18964143

sequential_1/dense_2/MatMul f4 [64, 64]
00000000: 873a 9cbd d7dd 41bd f3ca aebe 8e4d 84bd
00000010: 4176 413e 014f 3ebe f943 df3d c0af 02bd
00000020: 4182 4fbd 2d7e 8abe 4a91 b83d e32d 663c
00000030: 1e47 d03d d6c5 8a3e 3a64 8d3e bab4 da3c
00000040: 85fe 9bbd 013d 4abb f4a1 d43c e2a5 78be
00000050: b6f2 83be 0635 dcbd f216 773e 80b6 dc3e
00000060: 8556 5cbc 72c9 8e3e 0b3f ab3d a7ab aa3d
00000070: 48bd 0c3d 8ad2 f13d bd84 8b3e ede3 323b
00000080: 271c 4bbd b1c4 aabd 0c99 44be e8eb 37be
00000090: 96ac 653e 76da 6bbd e767 09be a03a 1abc
000000a0: d7f6 893d 0641 34be a39b 993e 3741 993d
000000b0: fcc5 98bd e0fa 6b3e a085 d23d 653c cdbd
000000c0: bb1d ed3c bfed 1bbe 056b 09bd 3dd4 4cbd
000000d0: 1610 2b3e 7d67 673c 8b8e 963e b45f cf3d
000000e0: 75b0 143e a18d 30be 9d94 53bc 9e0f 393d
000000f0: 9005 a33d abac 30be 337b eabe 78d5 52be
00000100: b197 59bd b34b babc 7168 e5bd bf27 c63c
00000110: 668e 603d 5176 38bd 80d2 de3c 22fc 48be
00000120: 8c60 1cbe 7d8b 18be 5d1e 153e f554 bcbd
00000130: 5306 f4bc 0168 b73e 858b a0be 32a8 0f3e
00000140: 8618 bdbe d013 103e c520 073e 5509 adbd
00000150: 9e61 92bc 2786 253e 1ec3 cabc 5e36 703d
00000160: 543a 37be 2c20 fc3c edb6 dabd 0d20 c6bd
00000170: 6e66 a0be 1436 e0bd de7a 4bbe 26e1 983d
00000180: c039 b4bd 28c7 4fbe cdfc 583e 921d 5ebe
00000190: e42d f13d 1e2d 34be ab96 9c3c 6010 6ebe
000001a0: 7938 9dbe 6110 5c3e a494 8a3d ca50 cabd
000001b0: 6a42 10be 2eef 0d3e 0501 84be 6942 353d
000001c0: 3f83 b7be a4d1 6fbe 9fa9 233e 0317 43be
000001d0: 50ce 313d 7b37 f3bc 39f6 a2be fc54 803e
000001e0: 09aa 033e 3935 29be d468 b93c 2be7 5ebe
000001f0: 6c1f a63a 49fd a2bd 6a74 24be 8dea f23c
00000200: 1541 24be 83c2 513e 2bce 363e 777f 3abe
00000210: f679 16be ed18 0bbd 2474 cabb c9ae 30bd
00000220: 1d5f 1d3d 9635 73be 2957 f0bd 8308 b5be
00000230: 28b0 a33c cc20 9bbe 03b9 783d 942c fd3d
00000240: 20d8 833d 859f 06bc 73ee d83e baf4 2abe
00000250: 54a3 6fbc b8d6 ccbe 7d4f 37bd 0445 38be
00000260: f788 88be ff91 8e3e 23c3 68be 9deb bf3c
00000270: 69b9 56be a0e3 813e 8836 0e3e 564e 063d
00000280: cb03 983d 5fcd 723c 322f 8b3e 068f 4abd
00000290: 449f 4abd 9545 6fbe e9de c9bd d2f0 4fbd
000002a0: d60f 16be 36aa 153e 1573 53be 6f20 9b3d
000002b0: e64a b3bd 29b0 693e 8979 bd3d 0211 4abe
000002c0: 5ee1 d5bc c998 6cbe 1705 413d ae23 4ebe
000002d0: 8d28 003e f034 8dbd c8af 82be 64f2 e73b
000002e0: 5a8a 88bd 4d84 233e 0e79 2ebe 65a6 12be
000002f0: 7c34 4c3d 5f12 393e b05c 083e 4d9c 52bd
00000300: b9f6 a63d 4ffe 393e 04e8 9bbd b397 003e
00000310: 7243 d93d 4b05 29be 01be 01be 215b aebe
00000320: 2336 bc3d 2901 65bd 2d03 30be 2324 3e3d
00000330: 46ea db3c c51f a73d 2f64 f7bd b273 b9bd
00000340: 0767 69bd 505d 143e 4025 d63d 6286 033f
00000350: a9b6 ce3d 562d 983e 67b2 543d ae1c 253d
00000360: 18f7 7abd e9ab 393e 5010 b9be 681c 0dbd
00000370: 12c9 dabe 18ed 6fbe bdef b3bc f6ad 5fbe
00000380: 4637 63bc d883 6abe 660f 40bd b1e3 3b3e
00000390: e1c2 56be 39a6 b8bc 1e2b d1bc cdcd 173e
000003a0: f7d6 a1bc ada8 833d f720 8139 2ca7 113e
000003b0: 4ed9 243e b8cb 8b3c 380f ae3d ea8c bcb9
000003c0: 39b4 5e3e 5fb7 c4bd 7ef5 c73e 3d30 3cbe
000003d0: b02b ca3d a492 d1bc aef3 a8be b20d 553e
000003e0: 85ff 463e b6e4 5cbe a4fd d0be 9bc1 9d3e
000003f0: 038d 083e e841 1abe 12e3 11be a315 9aba
-0.07628351 -0.047330704 -0.34139213 -0.06460105 0.18892767 -0.18584825 0.10901637 -0.03190589
-0.05066133 -0.2704939 0.09012087 0.014049026 0.101698145 0.27104062 0.2761553 0.026697505
-0.07616905 -0.0030859115 0.025956132 -0.2428203 -0.2577111 -0.10752301 0.24129847 0.43107986
-0.013448362 0.27888066 0.08361634 0.08333521 0.0343602 0.11807735 0.2724971 0.00272965
-0.049587395 -0.08338297 -0.19199008 -0.17961085 0.22429118 -0.057581387 -0.13418542 -0.009413391
0.06736534 -0.1760293 0.30001554 0.07483142 -0.074596375 0.2304492 0.10279393 -0.10021285
0.02894484 -0.15227412 -0.033549327 -0.050007094 0.16705355 0.014123795 0.29405627 0.10125676
0.14520438 -0.17241527 -0.01291385 0.04518091 0.07960045 -0.17253368 -0.4579712 -0.20589244
-0.05312318 -0.022741174 -0.11201561 0.024188874 0.0548233 -0.04503471 0.027199984 -0.19627431
-0.15271205 -0.1489696 0.14562364 -0.09195892 -0.029788172 0.35821536 -0.31356445 0.14029005
-0.36932772 0.14070058 0.13196094 -0.084490456 -0.017868813 0.16164456 -0.024751242 0.0586456
-0.17893344 0.03077706 -0.106794216 -0.09674082 -0.31328148 -0.109478146 -0.19871089 0.07464819
-0.088000774 -0.20290816 0.21190186 -0.21690968 0.11776331 -0.17595336 0.019114813 -0.23248434
-0.30707148 0.21490623 0.06766632 -0.098786905 -0.14087835 0.13860771 -0.25782028 0.044252787
-0.3584232 -0.23419815 0.15982674 -0.19051747 0.043409646 -0.029689541 -0.31828478 0.25064838
0.12857832 -0.16524209 0.022632994 -0.21767871 0.0012674159 -0.079584666 -0.16060033 0.029652858
-0.16040452 0.20484357 0.17852084 -0.18212686 -0.14694962 -0.033959318 -0.006178396 -0.043135438
0.038420785 -0.2375091 -0.117353745 -0.35358056 0.019981459 -0.3029846 0.060723316 0.12362018
0.06437707 -0.008216743 0.42369422 -0.16694918 -0.014626343 -0.40007567 -0.04475354 -0.17995077
-0.26666996 0.2784576 -0.22730689 0.023427779 -0.20969166 0.25368977 0.1388799 0.03278955
0.074225985 0.014819472 0.27184445 -0.049452804 -0.049468294 -0.23366387 -0.0985697 -0.050766774
-0.14654478 0.14615712 -0.20649369 0.075745456 -0.0875452 0.22821106 0.092516966 -0.1973305
-0.02610844 -0.23105158 0.047123995 -0.20130798 0.12515469 -0.06894863 -0.25524735 0.0070784558
-0.066670135 0.15968437 -0.17038366 -0.14321287 0.04985474 0.18073414 0.13316607 -0.05141859
0.08152527 0.18163417 -0.07612613 0.12557869 0.10608567 -0.16505925 -0.12670137 -0.340539
0.09190013 -0.05590931 -0.17188711 0.04642118 0.026845109 0.081603564 -0.120796554 -0.0905527
-0.05698302 0.14488721 0.104563236 0.51376927 0.100934334 0.2972209 0.05192795 0.040310554
-0.061270803 0.18131985 -0.36145258 -0.03445092 -0.4273153 -0.23430288 -0.021964902 -0.21843705
-0.013868159 -0.22901857 -0.046889685 0.18348576 -0.20972778 -0.022540199 -0.025533255 0.148246
-0.019755824 0.06428657 0.00024629358 0.14223927 0.1609852 0.017064914 0.084989965 -0.00035963143
0.21748437 -0.09605288 0.39054483 -0.18377776 0.09871614 -0.025582619 -0.32998413 0.20806006
0.1943341 -0.21571621 -0.40818512 0.30811772 0.13335042 -0.15064204 -0.14246777 -0.0011755716

sequential_1/dense_3/MatMul f4 [10, 64]
00000000: 4335 0dbf 0199 84be d5a9 bbbe 41e1 b1be
00000010: f346 a2be 1079 2b3e 4691 553e f5e2 2c3e
00000020: 482c e5be f603 883e e6ab 033f 1d0a 0dbf
00000030: 8fa2 69be 9722 0fbf f804 bfbd 0cd1 1d3b
00000040: 0b17 73be 723e 25be d9a5 ad3d ad5e 0abd
00000050: deb1 2a3e 5674 1abf cfcc df3e b643 b8be
00000060: 3bcc 1b3e cbeb 933d 53e1 87be d62f f0be
00000070: 225b b43e 0f0f cdbe 817f 003e 649d 343e
00000080: 32f3 87be c390 353e 56c3 82bd 44e2 0bbf
00000090: e5ff c0be e557 28be 840f 5f3e 51ea 6c3e
000000a0: 0fa9 fabd 5bde c4be 4913 93be 4db5 e3be
000000b0: 8e0c efbe 6e5e 4ebe a6be f9bd a39f 07be
000000c0: 296d bbbc 77ec 5bbf 99a3 1a3e 7708 36bf
000000d0: 2d76 95be 8f74 323e 6798 04bf 5c04 a03d
000000e0: 7672 bdbe 1564 823e d95d 01bf b257 613e
000000f0: 91ef 33bf 0f6d 85be 3d80 21bf ca46 12bf
00000100: 750d 413e 4bb6 0b3f 7d55 653e 12af 0f3e
00000110: ce65 6ebe e483 dabc 494f dbbe 186d 16bf
00000120: ea41 bebe b10d d1be 10da 3dbe 666c 5dbe
00000130: 5693 7fbe 2b5d 653e 3746 26bf 9927 63bf
00000140: 02c9 d5bd be8d a63e 8086 0c3e 6c68 2dbd
00000150: 7c36 73be dddc 033d deb4 49be 7665 7bbe
00000160: 9379 9c3e 6345 933e 02c5 dfbd fce4 8ebe
00000170: 4ae9 853e fa25 913e 6e5e 07bf 4742 1e3e
00000180: 55dc a2be ffa4 74be 4b73 01be 8868 703e
00000190: c8a3 c03e 40bb b5be 60e6 4f3e 1d10 3abd
000001a0: 34ef e1be 65e7 a7be 511a 013f b5c1 b9be
000001b0: 0c04 b83e baae 9a3d a790 6abe dd55 1e3c
000001c0: 6edd c6be 237c 723e ea14 00bf a061 493d
000001d0: 45ae 86be d513 d5be 1ad2 93be 022a 8bbe
000001e0: 1579 213e 4e66 0abf af36 a63e 66a8 0cbf
000001f0: 9963 3e3e 178f 8a3e b68d a6be 7cf8 293d
00000200: 5a9e dbbe 6967 e1be d70b 6f3e 416a c43d
00000210: 042b 19bf 435b 3c3d 3a98 233e d8ea a23d
00000220: a3e3 343e c1f8 f4be c7f1 d03d 9418 e2bd
00000230: f48d 6bbd cef8 ebbe b69d 92be 342f edbe
00000240: a171 b13d cdd8 05bf 25cc fabe b674 0ebe
00000250: 535e cebe fb64 823e 7d61 e3bd 16aa acbd
00000260: 5565 febd d7c4 4cbe bbfb e03e c65a b03e
00000270: 26a8 0dbf 56f5 e6be ebd6 253e bc26 5a3e
00000280: 798f bdbe 6ebc 763e 6ad3 be3e 7e12 303e
00000290: dba6 d6be 42f9 8e3e 3cb0 a3bd 32bf 953e
000002a0: e777 cf3e 8f97 bfbd 5df5 82be 3dd8 3e3e
000002b0: cca4 fe3d 4eef 0cbf 00c9 ca3e de95 fbbe
000002c0: 57c8 703e a1b2 1abf 061f 02bf d5ee 8e3e
000002d0: ace4 7dbe c66d ca3e 4503 2cbe e34f 09bd
000002e0: aadd 9cbe 6620 833e 25a6 fdbe ec8b bcbe
000002f0: 28ce 15bf 8c57 9d3e a3a7 f7be 3141 d4be
00000300: 1906 4a3e 42d3 bfbd f599 81be 7007 5abc
00000310: 05ab 2e3d 1156 acbd ab51 4b3e 4ec7 673d
00000320: dd30 3e3e 11b5 29be 3d34 3dbe 4267 0dbf
00000330: 9111 393d 487e 53be ac71 95be 78a2 42bf
00000340: a778 9f3d c5b4 afbe f00f 123e 1ace aa3c
00000350: 05cc e43d b9c3 85be 0a9c 12be b256 c0be
00000360: 9071 bb3e bb1e 5ebe 4a29 9c3e e429 f2bc
00000370: 05c1 97be e906 573d dca2 043e 424f 393e
00000380: 40ac 8b3e c532 8a3e 6595 92be b4c9 873e
00000390: 71c5 02bf 53df 79bd f5e3 203e 0fbf b13e
000003a0: 06e6 a83c 69a5 fd3d 0ecf 84be 44c7 103e
000003b0: 2c78 d8be 0227 903e 246f cebe 8f94 31bd
000003c0: 6411 8fbe 21ec fdbe 0e4b c6be 4723 81be
000003d0: 6ba1 fe3d ea76 673d b5ff 843e 1fbb 123d
000003e0: 56c4 12bf b427 073e 3b8c 01be e67f cfbe
000003f0: 6955 1c3e cc3b 903e fa39 b7be 274e 2abf
-0.55159396 -0.25897983 -0.3665301 -0.34742168 -0.31694755 0.167454 0.20856199 0.16883452
-0.44760346 0.26565522 0.5143417 -0.55093557 -0.22815917 -0.55912155 -0.093271196 0.00240809
-0.23739259 -0.16137102 0.084788986 -0.033781696 0.16669413 -0.60333765 0.43710944 -0.3598916
0.15214626 0.07222708 -0.26539096 -0.46911496 0.3522578 -0.4005055 0.12548639 0.17638165
-0.2655273 0.17731003 -0.063849136 -0.5464213 -0.37695232 -0.16439779 0.21783262 0.2313626
-0.122392766 -0.38450894 -0.2872565 -0.4447426 -0.46689266 -0.2015321 -0.121945664 -0.1324449
-0.0228792 -0.8590769 0.1510147 -0.71106666 -0.29191723 0.17427276 -0.5179505 0.078133315
-0.3700139 0.25466982 -0.50533825 0.2200611 -0.70287424 -0.26059768 -0.630863 -0.57139266
0.1885279 0.5457503 0.22395892 0.14031628 -0.23281023 -0.026674218 -0.42833927 -0.58760214
-0.37159663 -0.40830758 -0.18540215 -0.21623382 -0.24958548 0.22398822 -0.6495089 -0.88732296
-0.1043873 0.32530016 0.13723183 -0.042335913 -0.23751253 0.032193054 -0.19697902 -0.24550423
0.30561504 0.28763875 -0.10926248 -0.27909076 0.26154548 0.28349286 -0.52878463 0.1545497
-0.31808725 -0.23891066 -0.12641637 0.23477376 0.37624955 -0.35494423 0.20302725 -0.045425523
-0.4412781 -0.32793728 0.5043078 -0.362806 0.35940588 0.07552858 -0.22906743 0.009664026
-0.38840812 0.23680167 -0.5003191 0.049165368 -0.26304832 -0.41616693 -0.28871232 -0.27180487
0.15768845 -0.54062355 0.32463595 -0.54944456 0.18592681 0.27062294 -0.32529992 0.04149674
-0.4289425 -0.44024208 0.2334436 0.09590579 -0.5983126 0.04598547 0.15976039 0.07954949
0.17664962 -0.47846034 0.10202365 -0.11039844 -0.057508424 -0.4608826 -0.2863595 -0.46325076
0.08664251 -0.52283937 -0.48983875 -0.13911709 -0.4030634 0.25467667 -0.11102579 -0.08430879
-0.12421671 -0.19996963 0.43942055 0.34444255 -0.553347 -0.4510905 0.16195266 0.21303838
-0.37023523 0.24095318 0.3727067 0.17194554 -0.41924176 0.27924544 -0.079925984 0.29247433
0.40521166 -0.093550794 -0.25577822 0.18637176 0.12433776 -0.5505265 0.39606476 -0.49137777
0.23513924 -0.60428816 -0.5082859 0.2791659 -0.24794263 0.39536875 -0.16798122 -0.03352345
-0.30637866 0.25610656 -0.4954082 -0.36825502 -0.58517694 0.30730855 -0.48370084 -0.41455987
0.19728889 -0.09366466 -0.25312772 -0.013307437 0.042643566 -0.08414853 0.19855373 0.056586556
0.18573327 -0.16572978 -0.18476959 -0.55235684 0.04518277 -0.20653641 -0.29188287 -0.7602916
0.077866845 -0.34317604 0.14263892 0.02085023 0.11171726 -0.26125887 -0.14317337 -0.37566143
0.3661008 -0.2169141 0.3050025 -0.02956099 -0.2963945 0.052496824 0.12952751 0.1809664
0.27279854 0.2699186 -0.28629604 0.26521075 -0.5108252 -0.061003994 0.15711959 0.3471608
0.020617496 0.12385065 -0.2593922 0.14138514 -0.42279184 0.2815476 -0.4031917 -0.043354567
-0.27942955 -0.49594215 -0.38729137 -0.25222227 0.12433132 0.05650989 0.2597634 0.035822984
-0.57330835 0.1319874 -0.1265115 -0.40527266 0.15266956 0.2817062 -0.3578642 -0.665255

sequential_1/conv2d_3/Conv2D f4 [32, 2, 2, 1]
00000000: 62b1 853e 61d0 0abe 4acb 323e 168b 0c3e
00000010: c148 f53d bab9 20be a0a0 bfbe fdd7 923e
00000020: 8ea7 ae3d 4540 51bd 6767 9abe 66fb b23e
00000030: b285 b5bd bebc 5fbe d883 26be 8552 89be
00000040: 08af e23d 18c8 36be d786 e5bd 7094 9e3d
00000050: 313d 143e 4059 9ebd 7e1d 49be b242 7c3e
00000060: f395 1c3e 1e80 2bbe 8bee 9f3d c2af 4b3e
00000070: 0387 1abe 165e 903e f1d0 73be 884f 263e
00000080: e8f1 22bd c17d 473e 6b70 733e e444 473d
00000090: bbcb 47be 2409 043e 781d 2cbd b148 2dbe
000000a0: 5ce5 52bd 9725 3dbe ce53 9f3d 9693 d23e
000000b0: ae74 bbbe 9962 a03e b3aa 813e ae50 a6bd
000000c0: 72ee 453e 47b7 6abe 2527 843e d80d 28be
000000d0: 1f42 093d d4a8 7b3d 620b 9cbe 4b9c 46be
000000e0: d418 d3bc c181 d73d 2a74 103d 8add 7ebe
000000f0: b7ab 803e aa32 31be f38c ef3d 1141 f8bd
00000100: 3460 4c3e 2baf 5dbe 41d4 f83c fe62 dc3d
00000110: 96ac 0dbd 2bc2 0cbe d8d6 1f3e a8e9 c6bd
00000120: 9673 663e a6f8 423e 5e5b 78bd 0604 afbd
00000130: 1ea0 dd3d 7a9a 0d3e 4412 0fbd a1fd 6ebe
00000140: ee8f 3f3e 5cc8 59be 9d00 a0bd 6810 51bd
00000150: da83 e53d 80ad 1abd 3c22 cc3e 9ad3 9cbe
00000160: 679d 00be 167e e03d 160e 36be d14c dd3d
00000170: 6336 9c3e 4be3 55be 16d4 d2bd 29f3 2fbe
00000180: cf42 823e 4004 8fbe 9231 29be 74cc 863d
00000190: 86c7 84be 2cbe a03e df43 3bbd 8a46 adbd
000001a0: 258e 953d c521 16be a91e 59be 0df5 403e
000001b0: e2a6 873e 345d 063e ceed cf3d a1cc 933c
000001c0: e376 2f3e 9354 37bd 002b 35be d91b a73d
000001d0: e0fe fcbd 9b22 30be 0304 fcbd f725 d53d
000001e0: 62a5 f2bd 02c2 483d e6aa 6a3e ef9a 95be
000001f0: af9e afbd 63d3 bfbd 4704 5c3e 1db4 f7bd
0.26111895 -0.13556053 0.17460361 0.13724932 0.11976767 -0.15695849 -0.37427235 0.2868041
0.08528052 -0.051086683 -0.30157015 0.34957427 -0.08863391 -0.21849343 -0.16261232 -0.2682077
0.11068541 -0.17849767 -0.11207359 0.07743156 0.14476468 -0.07731867 -0.19640157 0.24634817
0.15291576 -0.16748092 0.0780917 0.19891265 -0.15090565 0.28196782 -0.23810174 0.16241276
-0.03978148 0.19481565 0.23773353 0.048649684 -0.19511311 0.12894112 -0.04202029 -0.16922261
-0.051488265 -0.1847137 0.07779656 0.41128224 -0.36612457 0.31325224 0.25325546 -0.08120857
0.19329241 -0.22921477 0.25811115 -0.16411531 0.033510324 0.061440304 -0.30477434 -0.19395559
-0.025768675 0.105227955 0.035267033 -0.24889198 0.25131008 -0.17304483 0.11696806 -0.121217854
0.19958574 -0.21648853 0.030374648 0.10761069 -0.03458842 -0.13745944 0.156093 -0.09712535
0.2250503 0.19040164 -0.06063401 -0.08545689 0.108215556 0.1382846 -0.03492953 -0.23338939
0.18707249 -0.21267837 -0.07812617 -0.051041037 0.11206789 -0.03776312 0.3986987 -0.3063019
-0.12560044 0.10961549 -0.17778811 0.10805667 0.30510244 -0.20887487 -0.102943584 -0.17182602
0.25441596 -0.2793293 -0.16522816 0.06581965 -0.25933474 0.3139509 -0.045719024 -0.0846072
0.073025025 -0.1466132 -0.21203102 0.1884348 0.2649451 0.13121492 0.101527795 0.01804191
0.17135195 -0.04475839 -0.17692184 0.081596084 -0.12353301 -0.17200701 -0.12305453 0.10407632
-0.118479505 0.049013145 0.22916755 -0.29219767 -0.08575188 -0.09366491 0.21486007 -0.12094901

sequential_1/conv2d_4/Conv2D f4 [32, 2, 2, 32]
00000000: 123b cf3d 526f 2a3e 3b45 a33e a888 f1bd
00000010: 27ae 2b3e d2ec bd3d 86c2 563e 0abf 5cbc
00000020: 40ac 023e f590 433d 7d9a 01bd b3f6 94be
00000030: 6c6e 9c3d e6a6 d93c b271 3d3e 305a 88be
00000040: 2ae6 403c aeba 30be ad96 03be b2bc 553e
00000050: 0343 d3bd 76f6 d83d d2db d7ba a978 f03d
00000060: 1664 8b3d a90c a3bd 6593 c83d b6e6 48bc
00000070: ce28 3a3d 5ffe 55be 453e 48be 4d43 d2bd
00000080: 7c02 3a3e 8695 9a3d 28d2 763d 6d3e cdbc
00000090: 2da1 18bd 219a 803e bec4 e7bb 9fa8 50be
000000a0: bd0b 21be 37cd f73d 4ca9 f5bd 3d34 8ebe
000000b0: 6d79 6d3e aaa4 ce3c b420 88bc 44a3 2ebe
000000c0: 2246 123e 21f8 973d 3238 05be becb 0bbe
000000d0: 089a 58be 638d 143d 506a 63bd 99da 51bd
000000e0: 170f 4bbd e23f 8bbe 9b05 2cbe 45e7 52bd
000000f0: dd48 553d 7f0c 93bd 8d1b 9c3e c160 223e
00000100: e710 cf3d b1f6 c03d 8191 4dbe fa80 103e
00000110: 24cf 1e3d c7f0 4cbe 44aa d13d 68a0 9e3d
00000120: a542 99bd 3375 073e 958a 56be 453d c23d
00000130: 4d67 d43d 4e43 a3bd 0b35 2d3e b6a4 043e
00000140: 1905 08bc 36c7 a6bd 4638 fdbd 7506 06be
00000150: e095 9a3d 2296 593e 2fef 123e f25e c83d
00000160: 285c 043c 960c 723e 2d5a 853d ccc2 09bd
00000170: 404e a2bd 4d66 4b3e e394 783e cc84 f9bd
00000180: 351a 753d 1e10 ec3d c325 053e 050e e43d
00000190: dc14 fc3d 0235 c63d 064e 95bb 47b8 4e3d
000001a0: 465f fe3c c8f2 763e 7236 97be 2a7b 5fbe
000001b0: 1c0c 03bc 0764 7d3e 2eab 6d3d d135 373e
000001c0: bfb2 15be cac1 ad3d b2ca 0abe ace6 013e
000001d0: 0609 253e 944f 473d 198d 5a3e 6fe6 2e3d
000001e0: b0d2 b13d c56c 9cbd 31db b8bb f40b 1ebc
000001f0: 7525 b53c 95de 8fbd dfe7 a9bc b77e 3dbe
00000200: 798c 643d 470a 8fbc 6359 c13c 4062 c43d
00000210: 90cc a53d 1026 183e 9a58 e13b b78c b5bc
00000220: 3b81 1cbe a074 183d b544 18be 0a4b a13d
00000230: 8cd0 afbd ac42 423d a1b9 a03d 577e d13d
00000240: 309c b53d cd9e 16bd 8565 70bc dfdc 113d
00000250: 10a8 a73c a861 0a3e b431 443e f545 8f3c
00000260: 9d16 af3d 4753 273d 8349 b5bd fb54 cabc
00000270: b070 41bd e90b babd 8f51 b23c 3bf5 70be
00000280: 5c9a 923d c4ae 3abe 069a c33c 55c5 643d
00000290: 9a55 afbd 92d6 3f3e 34c8 bcbc 8527 453e
000002a0: 1a57 62be e807 443e d2d3 aa3d a2aa 973d
000002b0: 1231 9cbe c172 0a3d 4ec5 093e ac5d 39be
000002c0: 617a 95bd 03bd e7bd 4f89 fdbd 8563 8fbd
000002d0: 9f00 1bbe dcdd 1abe 04d3 e63d 0f9d 43bd
000002e0: 68bf 023b 3645 223e 7461 34be 7a7a 69be
000002f0: 0b9c 3f3d 5a83 b2be e00f a8be 6f5e 84be
00000300: 5f56 913d 9e45 adbe fddc abbd a67a a63d
00000310: 7a69 aabd 8d5f 83bd 5b69 403e 5512 77bc
00000320: f708 193e 75d7 50be 59a9 123e 0382 71bc
00000330: 6a68 623d 1f66 9cbd 07b6 2f3d 97ce eebd
00000340: ad0e 2b3e e706 4d3b caab 5cbd fb06 c63c
00000350: 9eb3 093e a11d 6abc 2688 bcbd 148c 13be
00000360: b4e6 2abd a072 8ebb ba1f 1abe 9a22 a63d
00000370: 4f4b c1bc 2a7c 273e db44 4abe ed30 763e
00000380: d456 9e3e 3241 babe afb0 3fbe 23e4 623e
00000390: 61c0 853d 4acf c3bd efce 2f3e 06cb 603d
000003a0: 70b7 053e 3947 8cbc 666f 983e 4557 ad3c
000003b0: dd9d a53e 6a9d e4bd 2f6e 75be 13ac 223e
000003c0: 6a27 953e 206f 8d3e 1fa0 81be c4df 62be
000003d0: 3f04 65bd e861 4f3b a780 81bc 86ba e9bd
000003e0: efde 443d 6fbd 20be 6c4c ad3d bb2c dcbd
000003f0: 7b9b 53be 65e2 a73e f205 3b3d 4c20 e63d
0.10118689 0.16644028 0.31888756 -0.11793643 0.16765653 0.092736855 0.20972642 -0.013473282
0.1276102 0.047745664 -0.031641472 -0.29094467 0.07638249 0.026568841 0.18500403 -0.26631308
0.011773625 -0.17258713 -0.12850447 0.20872763 -0.10315516 0.10593884 -0.001646871 0.11741764
0.06806199 -0.07961399 0.09793738 -0.012262037 0.04544907 -0.20897816 -0.19555004 -0.10266743
0.1816501 0.075480506 0.060259014 -0.025054181 -0.037263084 0.2511759 -0.007073014 -0.20376824
-0.15727134 0.120996885 -0.119951814 -0.2777423 0.23190852 0.025225002 -0.016617157 -0.17054468
0.14284566 0.07420374 -0.13009718 -0.1365194 -0.21152508 0.03626765 -0.05552131 -0.05123386
-0.049574938 -0.27197176 -0.16799013 -0.051490087 0.05207144 -0.07180118 0.3048977 0.15857221
0.10110646 0.09422053 -0.20075037 0.141117 0.038771763 -0.20013724 0.10237554 0.07745439
-0.074834146 0.13228302 -0.20951302 0.094843425 0.103712656 -0.07971822 0.16914766 0.12953457
-0.008301997 -0.08143465 -0.12364249 -0.130884 0.07548118 0.21248677 0.14349054 0.097837344
0.008078612 0.23637614 0.0651134 -0.03363304 -0.07925081 0.19863243 0.24275546 -0.12183532
0.059839446 0.115265116 0.13002686 0.111354865 0.12308666 0.09678079 -0.0045564203 0.05046871
0.03105129 0.24116051 -0.29533726 -0.21824327 -0.007998493 0.24745189 0.058024578 0.17891623
-0.14618967 0.08484228 -0.13553885 0.1268565 0.16116723 0.048659876 0.21342887 0.042700227
0.086827636 -0.07637934 -0.005641364 -0.009646405 0.022112587 -0.07024876 -0.020740448 -0.18505369
0.055798028 -0.017460955 0.023602193 0.09589052 0.08095658 0.1485827 0.006877017 -0.022161825
-0.15283673 0.037220597 -0.1486996 0.07875641 -0.08584699 0.047426865 0.07847906 0.102291755
0.08867681 -0.036772538 -0.014672642 0.03561103 0.02046588 0.13513815 0.19159585 0.017489413
0.08549235 0.040850904 -0.08851912 -0.024698725 -0.047226608 -0.09084303 0.021767406 -0.23531048
0.07158348 -0.1823073 0.023877155 0.055852253 -0.08561249 0.18734196 -0.023044683 0.19253357
-0.22103539 0.19143641 0.08341183 0.074055925 -0.30506188 0.033800844 0.13454172 -0.18102139
-0.072987325 -0.11315348 -0.12379705 -0.07001404 -0.15136956 -0.15123695 0.11270717 -0.047757205
0.0019950513 0.15846714 -0.176153 -0.22800627 0.046779674 -0.34865838 -0.32824612 -0.25853297
0.07096552 -0.33842176 -0.083917595 0.08128862 -0.08320899 -0.06414709 0.1879019 -0.015080054
0.14944826 -0.2039469 0.14322414 -0.01474047 0.05527536 -0.076366656 0.042898204 -0.11660498
0.16704817 0.0031284632 -0.05387477 0.02417325 0.13447425 -0.014289291 -0.09205656 -0.14408904
-0.041723922 -0.0043471605 -0.15051165 0.081120685 -0.02359548 0.16355959 -0.19752829 0.24042101
0.3092562 -0.36377865 -0.18719743 0.2215734 0.06530834 -0.095610216 0.17168783 0.05488112
0.13058257 -0.017123805 0.2977249 0.021159777 0.32347003 -0.11162837 -0.23967813 0.15885954
0.29131633 0.27623844 -0.25317475 -0.22155672 -0.055912253 0.003164405 -0.015808417 -0.1141253
0.04806417 -0.15697263 0.08461842 -0.10750719 -0.2066478 0.32789913 0.045659967 0.11236629

sequential_1/conv2d_5/Conv2D f4 [64, 2, 2, 32]
00000000: 8470 aabd edf9 1e3c 37ed d5bc 88eb 9ebd
00000010: e80f e6bd fa0c adbd 6c76 f0bd aa29 ab3d
00000020: 507f 2c3a 3935 4c3d 9712 96bd 5728 65bd
00000030: e8db 923d db1b 5fbd de7e 453c 6eba c83d
00000040: c0fa c93c fe24 bf3d 45f6 98bd 9b50 fdbd
00000050: a85f abbc 2c93 bbbd 705f 59bc be35 d73c
00000060: 7cd5 883d b992 22bd 6443 aebd cef1 d7bd
00000070: ce76 00be ab95 253d b660 94bd f2c9 15be
00000080: 0d01 bdbd 2cac 44bd 7913 05be 73e8 00bd
00000090: 3d6c 813d 7f26 873d f30d 363d 45f2 89bd
000000a0: 6a29 a2bb c50e e6bd edd4 bfbd 8590 e5bd
000000b0: 46bf b7bc ac02 1e3c 438a 603d bf44 19be
000000c0: f987 aabc f6b0 c2bd b28a 63bd 9200 bebd
000000d0: d2fb aebd a041 36be 4e5c a3bd df48 643b
000000e0: f925 09be 3b11 883b 42bb 563c a23a f7bd
000000f0: f110 06be 5d6c 4b3d 8691 eabd 1d8d 0cbe
00000100: 1ec7 4abd bafd 64bd 8a02 8f3c 2182 31bd
00000110: 7f3a 543d ec15 a63d 9dda d03c 9f27 01bc
00000120: 44c9 d6bd dd79 0abd 72e1 763d 9782 ab3d
00000130: 7d1e edbd 745c 813d d819 153d 5b39 f8bd
00000140: e579 a33d 8e27 65bc eab8 2ebd befd 07bd
00000150: 03b6 8ebb a566 c0bd 33f0 033d 3370 843d
00000160: 5bdb 873d 03e2 ed3d d0a7 7a3d a980 5a3c
00000170: 547e eb3c e56a 92bd 5eec 54bd 8b77 38bd
00000180: 4ee3 2dbd 7d07 af3c 0e39 893d db3e 643d
00000190: a914 b5bd 7233 ecbd 6630 26be d990 85bc
000001a0: fa33 953d fc5b a73c 5dfc 43bd 76ec c8bd
000001b0: 72ee eb3c f23a 3c3d 3c01 f6bb 2178 f13a
000001c0: 730f b2bd ab8e af3d a8f5 57bc d336 893c
000001d0: 8e28 18bd d781 f6bd f256 97bd 0560 ad3d
000001e0: 5fb6 bd3d 7055 08be c906 913d 5df9 88bd
000001f0: 10f9 b33d 5e69 08be d2cd b5bd e4e9 fcbc
00000200: e3e4 4fbd 98a2 3c3e ede1 c4bd 77da 8fbd
00000210: 0489 303e 6c9d 943d 86af 1d3d 781b a3bd
00000220: da11 333e 3b4d b1bd b36c 19be 0e10 f4bd
00000230: f1a2 5e3d 054b c0be fb67 21be ceee 0a3e
00000240: 481c d13c d25f b93c a74a 1c3d c894 e33d
00000250: c8b0 dbbd e249 05be a38f 313d 343b 8abb
00000260: ad2d 1a3d 1563 1f3c 7865 553d f2d7 1abc
00000270: a0ad 90be 801c a23b 56f5 eb3d 26eb f23d
00000280: b7a9 6bbd 2bdb 80bd f510 c4bd 4d5a 613e
00000290: 7ed4 253d 1e9a 8dbe c0e1 393e 757e e6bd
000002a0: 4fb1 d53d 0992 a9bb 9025 cc3d d408 22be
000002b0: 607f dabd 9f6a eb3d 18c0 093d 4059 e53b
000002c0: 336c 883d dcca 943d 54d0 d23c 1baa a8bc
000002d0: fad9 553e 4728 083d 043a 0c3d 5d87 b43d
000002e0: 468a ff3d e40f 143e 2d1b bd3c b1dd c1bc
000002f0: b9e2 07be 9475 11be cebc 2abe fbf2 e73d
00000300: f7f5 4a3b 512c a5bd 6aeb a1bd 2bea d3bc
00000310: bc7f 913d 87fa 823d bc6d fbbd 889b 43be
00000320: f91e ab3d 1e15 c73d c8ab bf3d f3f7 033c
00000330: 08e6 0a3d 5ebc 06bd 3fce 30bb 1d9e 163d
00000340: 5a3e f0bd 02c2 11bd 97e9 533b ef36 64be
00000350: 2ac0 12bd a66b f53c 08a1 eebb 3e91 893e
00000360: 668d 853d af00 9ebe fcd8 783d f5ee e8bd
00000370: 3052 4e3e b910 b23e 0a57 82bd d461 343d
00000380: ded8 4e3e 6e41 1f3d 5cb6 39bc 511a 8cbe
00000390: 8438 e2bd 4548 f9bc 115f 8dbe 3760 de3d
000003a0: 2756 52bd f5f1 0abe 8bfc 10bf e7b0 68be
000003b0: c4f3 f1be 5a5f dabd f682 b1bd db5a d63d
000003c0: 3653 a4be a5ca 81bd 43b9 be3e d48d 9d3b
000003d0: c7bb 7fbe 524b efbd ad5a 9e3c aca2 d6bd
000003e0: 09f2 cbbc 0eaf 583d ab80 58bb 5273 abbc
000003f0: 2579 62bb 3c51 c9bc e429 acbc 2444 de3b
-0.08322242 0.009703142 -0.02611409 -0.07759768 -0.112335026 -0.08449741 -0.11741337 0.08357556
0.00065802503 0.049855445 -0.073277645 -0.055946674 0.0717085 -0.054469924 0.012054173 0.09801184
0.0246557 0.093332276 -0.07468847 -0.1236889 -0.020919636 -0.0915893 -0.013267383 0.026270743
0.06681344 -0.039690707 -0.085089475 -0.105441675 -0.1254532 0.040425938 -0.07245009 -0.14627817
-0.09228716 -0.04801576 -0.1299571 -0.03147168 0.06319473 0.065991394 0.044446897 -0.06735662
-0.0049487846 -0.11233286 -0.09366784 -0.112092055 -0.022430073 0.009644192 0.054819357 -0.14967631
-0.02081679 -0.09506409 -0.055552192 -0.092774525 -0.08544125 -0.17798471 -0.0797659 0.0034833474
-0.13393392 0.0041524447 0.013106169 -0.1207173 -0.130924 0.04966389 -0.11453538 -0.13725705
-0.0495063 -0.055906035 0.017457265 -0.04333699 0.0518136 0.0810965 0.025494868 -0.007882982
-0.10487607 -0.033807624 0.060273595 0.083745174 -0.11578081 0.06316462 0.0364016 -0.12120315
0.07982234 -0.013986481 -0.042656817 -0.03320097 -0.0043551936 -0.09394578 0.032211494 0.06466713
0.066336356 0.11615374 0.061195195 0.013336339 0.028746761 -0.07149295 -0.05198323 -0.04503588
-0.042453103 0.021365875 0.067003354 0.055724006 -0.08841831 -0.1153325 -0.162294 -0.01630442
0.07285304 0.020429604 -0.047848094 -0.09810726 0.028800223 0.045954652 -0.0075074714 0.0018422642
-0.08694353 0.08572134 -0.013181128 0.016749775 -0.03714805 -0.12036484 -0.073896304 0.0846558
0.092633 -0.13313842 0.07081372 -0.06688187 0.08787739 -0.13321444 -0.08877148 -0.030873246
-0.050755393 0.184214 -0.096134044 -0.07024091 0.17239767 0.07256588 0.03849747 -0.079642236
0.17487279 -0.08657309 -0.14982872 -0.11917125 0.05435461 -0.37557235 -0.15762322 0.1356766
0.02552618 0.022628698 0.03815713 0.11112362 -0.10727078 -0.13016465 0.043349873 -0.0042184833
0.037641216 0.009728213 0.05209872 -0.009450899 -0.28257465 0.004947245 0.115214035 0.11861257
-0.0575349 -0.06291803 -0.09573547 0.22007103 0.04048585 -0.27656645 0.18152523 -0.112545885
0.104342096 -0.0051748795 0.09968102 -0.1582368 -0.10668826 0.11494946 0.03363046 0.006999165
0.06661262 0.07265255 0.025734104 -0.020588925 0.20883933 0.033241536 0.034235016 0.08814881
0.124775454 0.14459187 0.023084247 -0.023665281 -0.13270082 -0.14205009 -0.16673586 0.11325642
0.003096936 -0.08065093 -0.0790623 -0.025868496 0.071044415 0.063954405 -0.122767895 -0.19102299
0.08355517 0.09720825 0.093589365 0.008054721 0.03391078 -0.032894485 -0.00269784 0.036771882
-0.117306426 -0.03558541 0.0032335275 -0.2228658 -0.035827793 0.029958557 -0.00728238 0.26868623
0.0652111 -0.30859897 0.060753807 -0.113737024 0.2014854 0.34778383 -0.06364258 0.04403861
0.20199916 0.038880758 -0.011334982 -0.27363828 -0.11045936 -0.030429969 -0.27611592 0.10858195
-0.051351693 -0.13568862 -0.5663535 -0.22723733 -0.4725629 -0.10662718 -0.08667557 0.10466548
-0.32094735 -0.063374795 0.37250718 0.004808167 -0.24973975 -0.11684288 0.019330347 -0.10480246
-0.024895685 0.05290132 -0.0033035676 -0.020929012 -0.003455707 -0.024574868 -0.021016069 0.0067830253
